models/discriminator_5_128_DRIVE_3.pt (torch, 711346 bytes, 18 tensors)

main.0.weight f4 [16, 4, 4, 4]
000000 cf 36 89 ba 10 a4 93 3c ae 8b 41 bc 8c d2 9e 3c
       -0.0010468605 0.018022567 -0.011813087 0.019387506
000010 a4 10 ba 3b 39 cb d2 3b 7e 66 bc 3c cb 62 fd 3b
       0.0056782532 0.0064329174 0.02299809 0.0077327243
000020 f6 0e d0 bc ca b8 09 3d 06 f0 c3 3b 8d 4c cf 3b
       -0.025397759 0.033623494 0.0059795408 0.0063262642
000030 9a 17 91 3b 0b a7 18 bc 4a 57 54 bc 26 6c c2 3b
       0.0044278624 -0.00931717 -0.012960264 0.0059333025
000040 bb ed 4d 3b 0d 05 35 bb 62 6d c6 bc d2 ba 8e bc
       0.0031422216 -0.0027621419 -0.02422208 -0.017423067
000050 17 d4 04 3c e0 45 25 bc 6c eb 6f bc f5 5f 68 bb
       0.008107207 -0.01008746 -0.014643531 -0.0035457585
000060 2f 05 2c 3c 66 1a 19 bc 32 ee 10 bc c4 52 b1 bb
       0.010499283 -0.009344673 -0.008845853 -0.0054114778
000070 38 d9 7f bc a7 e8 92 3c c0 2b e7 bc 4f 0c 1e bc
       -0.015615754 0.017933203 -0.028219104 -0.009646489
000080 d6 80 fc bb fb dc 10 3a 2a 0a c5 bc c0 3d 39 3c
       -0.007705788 0.0005526093 -0.024052698 0.011306226
000090 73 9c 82 bc 45 69 04 3c 86 21 0b bc cb d0 9c 3c
       -0.015943741 0.008081739 -0.008491879 0.019142529
0000a0 02 5e 3c 3d a1 9b 4b bc 7f 19 80 bc 2f 2f 0a bb
       0.04598809 -0.012427242 -0.015637157 -0.0021085253
0000b0 92 88 14 bb fd 69 93 3b 8c be 02 3c 18 4a 1b bc
       -0.002266441 0.004498719 0.00798 -0.009478115
0000c0 e4 b5 98 bc 3d 35 0b bd 41 37 f1 3c 42 49 e6 bc
       -0.01864142 -0.03398632 0.029445292 -0.028111104
0000d0 12 ea 2c 3c aa 05 3e ba 42 57 61 3c 9a 56 62 bb
       0.010553854 -0.0007248769 0.013753714 -0.0034536482
0000e0 9b e1 b5 bc 6e c7 20 bb 4e 4c 80 bc 66 ab 97 bb
       -0.022202304 -0.0024532932 -0.015661385 -0.0046285866
0000f0 02 3a e5 bc 62 bc b1 bc 19 41 93 3c ec 4f d6 bc
       -0.027981762 -0.021696273 0.017975377 -0.026161157
000100 d3 d5 a6 3b e0 2f b7 bc 49 18 0d bd 70 6a a9 bb
       0.005091408 -0.022361696 -0.03444699 -0.005170159
000110 ce 13 aa 3c e9 ab 8a bc 3c 7c 28 bb ca 1f 49 3c
       0.020761397 -0.016927676 -0.0025708815 0.0122756455
000120 5b 2a 2b 3c e0 46 d5 b9 d8 46 bd 3b 2f c1 9c bb
       0.01044711 -0.00040679332 0.0057762675 -0.0047837715
000130 c8 84 d6 bb da 2d b9 bc 32 02 d3 3a 7f 82 e9 bc
       -0.0065465905 -0.022604872 0.0016098677 -0.028504608
000140 75 17 12 bd 2f a3 31 3d 7e dd da bb 8e 3a be bc
       -0.0356669 0.043368515 -0.006679236 -0.02322128
000150 5a cd 4e bc b1 08 cc bb b2 1f a7 bb 07 df 68 bc
       -0.012622202 -0.006226622 -0.005100214 -0.01421333
000160 d1 aa 2b bc 56 14 15 bb 87 32 52 3d 85 51 9c bc
       -0.0104777375 -0.0022747717 0.051317718 -0.01908184
000170 54 4d 78 b8 84 d5 2d bb 74 c8 c4 3c e2 96 5b 3c
       -5.9199825e-05 -0.002652497 0.024021365 0.0134026725
000180 6c 12 28 bc b9 63 38 bc 86 2a 11 3c 94 f9 e0 3b
       -0.010258298 -0.0112542445 0.008860236 0.0068656895
000190 d7 27 61 3c df 0b 2f bd 5f c3 03 bd d7 41 e8 3b
       0.013742409 -0.04273593 -0.032168742 0.007087927
0001a0 92 23 99 3c 6b ee 24 bc 00 9d 63 3c b3 3e b1 bc
       0.018693719 -0.010066609 0.013892412 -0.021636343
0001b0 42 ef d0 bb f3 12 db bb 23 e9 5c bd 53 69 95 bb
       -0.006376178 -0.0066856085 -0.053933274 -0.0045596748
0001c0 92 7c a6 3c 5c e1 1e 3d 60 3f 09 3d 48 9d 94 3c
       0.020323072 0.03878914 0.033507705 0.018141404
0001d0 2d 4b 4b 3d 6e 0b ca 3c 39 de 06 bb 31 c3 44 bb
       0.04963224 0.024663653 -0.0020579232 -0.003002357
0001e0 05 60 c3 3c 70 75 de 3c 3d 1d 54 3d 05 10 3f 39
       0.023849497 0.027155608 0.051785696 0.00018221147
0001f0 06 cf 8c 3d b8 b0 07 3d bd c4 47 3d 3f 98 8c 3d
       0.06875424 0.033127517 0.04877161 0.06864976
000200 56 d0 b0 bc cd b3 8d bc b5 4b 62 bc ba c4 91 3c
       -0.021583717 -0.01729765 -0.013811995 0.017794002
000210 94 15 66 3c 95 11 0d bc 3b 8c ce 3b 13 f7 a6 3b
       0.014043231 -0.008610149 0.006303338 0.0050953715
000220 e2 17 94 bc 25 1e 9b 3c d9 b1 0f bd 3e 26 f7 bc
       -0.018077794 0.018935272 -0.035081718 -0.030169602
000230 f8 c2 28 bd 36 f5 11 3d 31 47 8b bc 8b 4e 5d 3c
       -0.04120156 0.035634242 -0.01700172 0.013507496
000240 55 1d d3 bc cb 7a 5b bc 78 93 c5 3c d2 08 d1 39
       -0.025770823 -0.013395975 0.02411817 0.00039870158
000250 a5 a8 c7 3a 7d 49 57 bb 29 6c 0a bc 5e 67 9a bb
       0.0015232755 -0.00328502 -0.008448639 -0.0047120294
000260 0f ae c6 3c 0f 39 34 3d 30 9d f2 3b 31 97 3f 3c
       0.02425292 0.043999728 0.007403992 0.011693762
000270 09 ad 49 3c ab d3 ec 3b a0 97 15 bc ed 0d e0 bb
       0.012309321 0.007227381 -0.0091303885 -0.0068375976
000280 d2 0a b9 3a 4d 34 4b 3c a0 05 0b bd c9 85 1e 3b
       0.0014117605 0.012402606 -0.03394091 0.002418863
000290 c9 cc 9f 3c af 10 e2 bb 6d b4 b0 bb cf 4b b0 bc
       0.019506829 -0.0068989615 -0.005392602 -0.021520523
0002a0 e7 1c 4f bc 9a ac e6 3c 8e 94 08 3d 4c 18 f8 bc
       -0.012641168 0.028158475 0.033344798 -0.030285023
0002b0 c2 9f 45 bc a3 09 48 bd f0 f0 dc 3c da e3 79 3c
       -0.012062015 -0.048837315 0.026970357 0.015252078
0002c0 6d d9 d9 3a 7c b9 5c bd 54 d2 5f bc 5f a9 6e bd
       0.0016620584 -0.05388783 -0.013660986 -0.058266994
0002d0 54 24 d6 bc df 85 b7 bc 9e e0 4d bd a1 09 5a bd
       -0.02614037 -0.022402702 -0.05026304 -0.05323184
0002e0 61 14 00 3c e1 9f a8 bd b7 58 75 bb 9c b8 87 bd
       0.007817359 -0.082336195 -0.0037436911 -0.06627008
0002f0 72 e1 af bc 87 4d 08 bd 50 b6 08 bd 86 6f 81 bc
       -0.021469805 -0.03327706 -0.03337699 -0.015800249
000300 3a 44 1f 3d 1f 24 94 3c bd 94 65 bc a0 29 ca 3c
       0.038883425 0.01808363 -0.014012513 0.024678051
000310 1d c0 a8 3b ea 69 88 bb 46 72 ae 3b c5 47 24 3c
       0.005149855 -0.0041630166 0.005323681 0.010026877
000320 8e 9f 44 bb f6 44 b0 3c e2 3c fc 3c 1a bd 47 3d
       -0.0030002329 0.021517258 0.03079075 0.048764326
000330 62 98 d9 3b 7e a9 22 bc 93 27 b4 bc de 09 ed 3c
       0.00664048 -0.009928105 -0.021991527 0.02893537
000340 65 4c ee 3c 61 02 b1 bc df e2 87 3c 8f 7a 02 bc
       0.029089162 -0.02160758 0.016587673 -0.007963791
000350 0d 98 88 bc 56 6d 48 bc c1 a9 8c bc 0c 70 64 3b
       -0.016674066 -0.012233099 -0.017170789 0.0034856824
000360 8a 3e f0 3c 4b 3a 71 bc c1 66 2c bc 34 ce 43 bc
       0.029326696 -0.014723371 -0.010522545 -0.011951018
000370 a5 49 34 bb df 45 10 3b 5f 07 3f bc 53 43 8c b9
       -0.0027509716 0.0022014303 -0.011659472 -0.0002675304
000380 4f 08 0d 3c b9 34 a0 3c 7b 65 50 bd a1 5c 12 bd
       0.008607938 0.01955639 -0.05087803 -0.03573287
000390 34 5c f6 bc 61 df 83 bb a6 cc 15 bd f7 f9 34 3a
       -0.030073263 -0.0040244316 -0.03657212 0.0006903703
0003a0 e1 a1 3a 3c 97 04 9a bc 93 40 17 3c 07 67 6c bd
       0.011391134 -0.018801017 0.009231704 -0.057715442
0003b0 aa 2f 1a bd a2 ee 6c bc c0 08 de bc e6 1c e1 bc
       -0.037643112 -0.014461191 -0.027103782 -0.0274796
0003c0 12 f2 91 3b af d0 07 bc 31 98 42 bc f3 5e 5b bc
       0.004453906 -0.0082895 -0.011877106 -0.013389337
0003d0 b5 b4 72 3c c8 ab ee 3c 48 a3 2d 3a 3d 10 cf 3c
       0.014813592 0.029134646 0.0006623757 0.025276298
0003e0 aa a5 75 3d ff 2d 04 3d 86 8f f5 3c e7 a8 80 bc
       0.059972443 0.032270428 0.029975664 -0.015705539
0003f0 ff 83 76 3d 55 2b 50 3d 4b a2 22 3c a1 8d 55 3d
       0.060184475 0.050822575 0.009926389 0.05213702

main.2.weight f4 [32, 16, 4, 4]
000000 08 c9 fb 3c 8e 70 66 3c a3 35 f9 bb 40 25 6d 3b
       0.030735508 0.014064921 -0.007605271 0.0036185533
000010 06 d8 9a ba ae 21 89 3c 34 c1 e5 3b 1e b1 35 3c
       -0.0011813648 0.016739693 0.007011557 0.011089591
000020 aa 4a 9f 3c d1 8c 6f 3c 2b 24 2e 3c 54 8f 8c 3c
       0.019444782 0.014620976 0.01062874 0.017158188
000030 56 f2 9b 3c d2 a3 18 3b 58 27 c8 3a ed b3 a7 bb
       0.019036453 0.0023291004 0.0015270514 -0.0051178844
000040 bc 0e a6 3c 66 0d 05 3d 9e 8c 47 bb 92 31 21 bd
       0.020270698 0.03248348 -0.0030448805 -0.039353915
000050 8f 12 d0 bc 4f 14 93 3c 58 82 2b bd cc c8 91 3c
       -0.025399474 0.01795402 -0.041872352 0.017795943
000060 63 21 df bc 30 08 19 bd b6 ab 3c bc 79 e7 b8 bc
       -0.0272376 -0.037361324 -0.011515548 -0.022571312
000070 ea a2 62 bd b0 86 09 3c 2f 97 b7 bc c7 e2 c1 bc
       -0.05533115 0.008393928 -0.022410957 -0.023667706
000080 4b 5c b5 bc 4a 27 e4 3b 32 82 bf bb 36 c7 43 3c
       -0.022138735 0.0069626914 -0.005844378 0.011949351
000090 e0 2f 39 bd b1 78 fc b9 bc d4 de bc ec bc e7 3c
       -0.045211673 -0.00048155108 -0.027201049 0.028288327
0000a0 ce 0a 46 bc ce 01 4e bc c4 40 cc ba 0f f3 81 3b
       -0.012087537 -0.012573672 -0.0015583267 0.0039657424
0000b0 73 62 57 3b 45 0a c6 bb b7 1d fb bb ff 91 55 bd
       0.0032865077 -0.0060437047 -0.0076634544 -0.052141186
0000c0 47 87 23 bd e1 ca 4f bd 95 57 2b 3d 8b 70 16 bb
       -0.039923932 -0.05073059 0.04183157 -0.0022955264
0000d0 d6 00 b8 3c 08 84 0d bb 16 1e c4 bc 6c ce 58 bd
       0.022461336 -0.002159359 -0.023940127 -0.052931234
0000e0 22 2a 01 bd 81 a3 a9 3b 04 3f f3 bc 6c 4c 88 bb
       -0.03153432 0.005176962 -0.029693134 -0.004159501
0000f0 f0 46 39 bd 91 bf 54 3a 35 82 b1 3c 12 46 b6 3c
       -0.045233667 0.0008115704 0.021668533 0.022250209
000100 82 e3 7f bc 5e 46 a6 bc 0e 5c ef 3c bb b3 89 bc
       -0.015618207 -0.020297226 0.0292187 -0.016809335
000110 ab 35 bd 3a 27 df 99 bb 97 96 03 bb 5e 1e 3a 3d
       0.001443555 -0.0046957913 -0.0020078772 0.045439117
000120 96 ff e7 3c 75 e4 a6 3c 73 29 0a 3d c2 c7 52 3c
       0.028320115 0.020372609 0.033730935 0.012865009
000130 02 e5 71 3c 04 78 ec 3c d5 5f 4e 3c 43 6a 2e 3d
       0.014764072 0.028865822 0.01259609 0.042581808
000140 4a de f4 3b 96 8c 06 bd 43 e2 bb 3c 20 c4 e4 bb
       0.007472788 -0.032848917 0.022935038 -0.0069813877
000150 6b 8e c4 bc 52 04 2c bc 87 fa 14 3c 13 3e 7d 3c
       -0.023993691 -0.010499077 0.0090929335 0.015456694
000160 14 4c 76 3c 92 65 bd 3c f2 14 be bc 3a 4a f3 bb
       0.015032787 0.023119722 -0.023203347 -0.00742462
000170 f4 81 1c bb c9 44 40 3c 8b 5e 12 3c fe 8a 82 3b
       -0.002388117 0.01173515 0.008933674 0.0039838543
000180 9d a3 5d ba 16 21 b8 bc 9e 9d 0f bd a3 6d 42 bb
       -0.0008454861 -0.022476714 -0.035062425 -0.00296674
000190 03 9f 10 bc d3 33 af bc 99 a2 02 bd c4 04 15 bc
       -0.008826974 -0.021387016 -0.031893346 -0.0090953745
0001a0 4f 1e 46 bc 73 f1 59 3c ca c8 54 3c 06 f6 b0 3b
       -0.012092187 0.013302195 0.012987325 0.005400422
0001b0 24 8a 0e bd e2 91 09 bd 58 9c e3 bb e7 4b cb bc
       -0.03479971 -0.03358639 -0.006946128 -0.024816466
0001c0 95 ab b4 3c 00 ff 4c 3b b0 3b 02 3d e0 61 aa bc
       0.022054473 0.0031279922 0.031795204 -0.020798624
0001d0 4e fe e3 bb 5d f8 8e 3c 04 de c6 3b 3c c5 05 bb
       -0.0069578057 0.017452413 0.006068947 -0.002041175
0001e0 ce 47 ae 3c 24 a5 35 bd 56 d8 08 bc 5e 45 72 bc
       0.021274474 -0.044346943 -0.00835236 -0.014787046
0001f0 45 6f 0c bd 8f bc e0 bc f2 6f 83 bb 13 4c 39 3a
       -0.034285802 -0.027433662 -0.0040111477 0.0007068526
000200 bf 6f 35 bc 17 a5 ca bc 39 e7 a7 bc c5 9d 09 3c
       -0.011074006 -0.024736924 -0.020495998 0.008399432
000210 a4 32 4e bd 2d 57 16 bd 4b 41 f7 bb 96 ab 5d bc
       -0.050341263 -0.03670423 -0.0075456253 -0.013529679
000220 fa c0 dd bc 0f 36 0b 3c 36 03 84 3a a2 25 ca bc
       -0.027069557 0.008496775 0.0010071758 -0.024676148
000230 d9 7e 65 3b 3a 6d 11 bd 1f a1 0f bd 02 1b b0 3b
       0.0035018234 -0.035504557 -0.035065766 0.0053743133
000240 28 72 e2 3c 4a 62 c7 bb a4 67 b3 3c db fb 25 3b
       0.027642325 -0.006084715 0.021900006 0.002532712
000250 99 35 94 bb e2 50 15 bd 20 66 88 3c d7 0a f3 3c
       -0.004522991 -0.03645409 0.01665026 0.029668255
000260 a6 62 40 3c 85 c1 eb 3c b3 22 cc bc f6 8e 1d 3d
       0.01174227 0.0287788 -0.02491889 0.038466416
000270 42 c7 40 ba 7a 96 3e 3c 46 d6 31 3d 5a bd 48 3d
       -0.00073539105 0.011632556 0.043417238 0.049008705
000280 59 25 0e 3d 5a 4d 6c 3d 74 58 13 3d 26 5f b7 3c
       0.034703586 0.057690956 0.035973027 0.022384237
000290 6d 5d 80 3b 3c c0 00 bb bc 05 da 3a 9a 3b 72 3c
       0.003917387 -0.001964583 0.0016633789 0.014784718
0002a0 ea b0 0f 3d 4a 8a ac 3c ae c2 4d 3c c6 c7 91 3b
       0.035080828 0.021062035 0.012558622 0.0044488637
0002b0 cc 34 ea 3c 41 0c d8 bb b1 b9 c4 bc ee b2 3d bc
       0.028589629 -0.0065932577 -0.024014326 -0.011578305
0002c0 64 5c 78 bc 50 39 39 bd 94 f5 37 bd 58 1d be bc
       -0.015158746 -0.045220673 -0.044911936 -0.023207352
0002d0 22 82 d2 bc e4 8c cd bc d1 14 51 bd 7a 5c 1a bd
       -0.025696818 -0.025091596 -0.051045243 -0.03768585
0002e0 3b 14 e5 bc 75 ee a7 bd 22 47 e9 bc 1f 17 6a bd
       -0.027963748 -0.08199779 -0.028476302 -0.057150956
0002f0 59 61 22 bd 3b 66 69 bc e7 30 56 bd e6 c5 94 bc
       -0.03964362 -0.014245565 -0.05229273 -0.018160772
000300 fc 32 ea bb 92 a1 33 bc 4a e6 13 bb 66 5e 42 bd
       -0.007147191 -0.010963814 -0.0022567683 -0.047453307
000310 18 11 eb bc 19 42 e9 3b c0 75 af bc 35 ba 23 bc
       -0.028694674 0.007118475 -0.021418452 -0.009993126
000320 bd 27 0a bd 0e 5c 5a ba c7 cd 03 bc 39 2b b2 bc
       -0.033729304 -0.0008329757 -0.008044667 -0.021749126
000330 80 ca 68 bc c5 3d ce 3b 58 da 3b 3b db 39 2b bc
       -0.014208436 0.0062939846 0.0028664079 -0.010450806
000340 35 1a c4 bb 5a 03 20 bb ab 1c df b8 0c 4f 05 3c
       -0.0059845694 -0.002441606 -0.000106388085 0.008136522
000350 ce d3 7f ba 35 08 92 ba 53 e7 c1 bc 10 12 23 ba
       -0.00097590394 -0.0011141362 -0.023669874 -0.0006220648
000360 f0 d4 e3 3c b6 6a c9 bc 57 e5 18 3c a8 19 70 3c
       0.027811497 -0.024587017 0.009332023 0.014654554
000370 38 e6 5b 3d 3d f8 b4 3b d7 fb e9 bc 9a a6 df 3b
       0.05368635 0.0055227564 -0.02856247 0.0068252804
000380 e4 9b 75 bc 06 4e 9d 39 6a f5 99 3c d5 2d 25 3c
       -0.0149907805 0.00030003506 0.01879378 0.010081728
000390 b2 79 bd 3b dc 60 16 bc be 15 57 bc d6 c7 47 3c
       0.0057823295 -0.0091783665 -0.013127742 0.012193641
0003a0 f4 cb 91 3b db 6c 48 3b 97 ea 9b bc 9a ef 16 3b
       0.004449362 0.003058246 -0.01903276 0.0023030997
0003b0 5c be be 3a b8 8b 72 3c e4 04 cc b8 73 54 a5 bc
       0.0014552581 0.014803819 -9.728389e-05 -0.02018187
0003c0 09 e1 52 bc 14 43 d0 ba 90 d7 7f bc 36 4d 21 3b
       -0.012871035 -0.0015889131 -0.015615359 0.0024612672
0003d0 97 a7 ec bc 80 df 9e bc 88 d6 c3 bc ca 60 3b bc
       -0.028888507 -0.019393682 -0.023906007 -0.0114366505
0003e0 6d eb ed bc b3 94 29 bd 01 93 d3 bb 70 e5 c8 bc
       -0.029042924 -0.041401576 -0.006456733 -0.024523467
0003f0 de 40 2c bd bf 8d 0f bd d1 53 9a bc 1f df 85 3a
       -0.04205405 -0.03504729 -0.018838795 0.001021359

main.3.weight f4 [32]
000000 9b 1f 82 3f 98 c6 7f 3f 8a 2e 7d 3f 9e 7a 81 3f
       1.0165895 0.99912405 0.9889914 1.0115545
000010 0b 39 73 3f 49 57 76 3f 32 11 78 3f c7 10 79 3f
       0.95008916 0.96226937 0.9690124 0.97291225
000020 cf de 7e 3f 0c 4f 7e 3f 2b 5f 82 3f f4 40 80 3f
       0.9955873 0.99339366 1.0185293 1.0019822
000030 44 24 80 3f 2d 53 78 3f 60 fd 7f 3f 7e 2a 87 3f
       1.0011067 0.97001916 0.99995995 1.0559843
000040 b8 d4 81 3f 50 ff 75 3f eb e5 84 3f 7c 88 84 3f
       1.0143042 0.960927 1.0382665 1.0354152
000050 92 06 7e 3f a2 9b 78 3f 96 4e 7e 3f 49 65 81 3f
       0.99228776 0.97112477 0.9933866 1.0109035
000060 40 94 7d 3f 25 af 80 3f 1c b4 7d 3f 56 21 83 3f
       0.99054337 1.005345 0.9910295 1.0244548
000070 36 c5 82 3f 50 cb 81 3f fa a9 70 3f 36 05 80 3f
       1.0216434 1.0140171 0.94009364 1.000159

main.3.bias f4 [32]
000000 68 a7 34 bc 9d 83 42 bc 03 58 b7 bc c0 ad c6 3c
       -0.011026241 -0.011872199 -0.022380834 0.024252772
000010 62 a6 28 bd d0 e5 6f bc 76 88 71 bc 38 f2 d4 bc
       -0.0411743 -0.014642194 -0.0147420075 -0.025994405
000020 db 85 80 bc f2 b2 d7 bc 16 bf 95 bc bc 92 16 3d
       -0.015688827 -0.026330445 -0.018279593 0.03676103
000030 40 5d 8c bc 4b 94 ec bc 12 f7 e9 bb 63 a3 eb 3b
       -0.017134309 -0.028879305 -0.007140049 0.007191108
000040 b7 b5 a4 bc 7c d2 17 bc d4 a9 c2 3b 7b 8f 1f 3c
       -0.02010618 -0.009266492 0.0059406552 0.009738798
000050 32 d0 e6 bc 1c 8f 1f bc 11 7e 87 bb 44 f8 c2 3b
       -0.028175447 -0.00973871 -0.0041349013 0.0059500057
000060 a2 08 d1 bc 39 b6 8e 3c 10 3e 26 3c a7 c6 26 bb
       -0.025516812 0.017420875 0.010146633 -0.0025447996
000070 89 e6 09 3c 12 68 70 3c 2c a9 2a bd 46 05 cf bc
       0.00841678 0.01467325 -0.04166524 -0.02527107

main.3.running_mean f4 [32]
000000 0d d1 28 3d ef eb 3a bf 6d fc 27 bf bb 5a 6b bf
       0.04121499 -0.73016256 -0.65619546 -0.9193532
000010 f2 37 25 3e 25 34 33 3e 03 0a b0 3d ca 11 60 3e
       0.16134623 0.1750036 0.085956596 0.21881786
000020 25 1e 2f 3e 29 25 37 bf 0b cf a0 3d 11 ab 92 be
       0.17101343 -0.71541077 0.0785199 -0.28646138
000030 22 ac 0f bc f3 8b 37 bf 96 ff 69 3e bf 03 1f 3f
       -0.008769067 -0.7169792 0.22851405 0.6211509
000040 95 00 0c 3f c9 8c 9e 3e 6b 32 5f 3e 02 79 40 bf
       0.5468839 0.30966786 0.21796577 -0.75184643
000050 8a 33 ad 3e b8 89 0b bf 68 f3 2d bf 81 4e f7 3e
       0.33828384 -0.5450702 -0.67949533 0.4830208
000060 28 ae db bd 6d a1 c2 be bc 41 10 3c 38 83 e6 3e
       -0.10726577 -0.38013783 0.008804735 0.45021987
000070 6e 8d a4 be de d5 aa be 4b 18 c3 3b 13 a7 ac 3e
       -0.32139152 -0.33366293 0.0059538237 0.33721218

main.3.running_var f4 [32]
000000 ac e8 23 3b 2d 51 b2 3c 19 ef 4f 3c a9 43 ed 3c
       0.002501051 0.021767223 0.012691283 0.028962927
000010 b5 26 c4 3b 27 86 94 3b 67 b2 cd 3b 9b e6 92 3b
       0.0059860596 0.004532594 0.0062773707 0.0044830567
000020 6d 60 c0 3b c4 3f 90 3c e7 bd 5d 3b a6 2e 21 3b
       0.00587087 0.01760853 0.0033835114 0.0024594455
000030 ec 1d c1 3b 82 b2 8d 3c 8d 54 0e 3c f9 34 4c 3c
       0.0058934595 0.017297033 0.008687151 0.012463802
000040 4c 79 09 3c 0d f7 bf 3b 93 27 09 3c 12 29 b1 3c
       0.008390736 0.005858308 0.008371252 0.02162603
000050 a2 42 25 3c 98 6e 31 3c fe 78 6e 3c 2a e2 02 3c
       0.010086687 0.01082959 0.014555214 0.007988492
000060 61 ef b8 3b aa 05 21 3c f2 fd 4b 3b 12 fb 3d 3c
       0.0056437706 0.009828011 0.0031126705 0.011595504
000070 40 c3 83 3b 0b 61 58 3b cf f7 ad 3b 5d 4a 32 3c
       0.0040210783 0.0033016826 0.005309082 0.010881987

main.5.weight f4 [64, 32, 4, 4]
000000 95 54 18 3d f1 34 a8 bc 51 cb 62 bc 47 c3 03 3b
       0.03719004 -0.020533057 -0.01384242 0.0020105408
000010 76 c7 0b bd 73 26 7a 3c 5b bd 3b bb 5a e8 ff b9
       -0.034125768 0.015267956 -0.00286468 -0.00048810506
000020 58 a4 b3 3c 73 34 fb 3c ba 0f ac bc da 91 2d 3d
       0.021928951 0.030664658 -0.021003593 0.042375423
000030 66 b4 6b 3b 7f fa 0d 3d 89 e1 93 bb 30 ef 50 3c
       0.003596568 0.03466272 -0.00451297 0.012752339
000040 6e a4 be bc 98 4d 1b bd 1e 5f e0 bc a5 a0 a2 bb
       -0.023271766 -0.037915796 -0.027389105 -0.004962998
000050 b5 eb ca 3b 28 a2 bf 3c 31 d8 20 ba b2 6a 90 bb
       0.0061926492 0.023392752 -0.00061357307 -0.0044072503
000060 6a 27 c2 bb 2d ac a3 bc ea a6 2d 3c 51 3b 74 bc
       -0.0059251087 -0.01997956 0.010598877 -0.01490672
000070 b0 75 d5 bb e8 6c bd bb 5e 48 e8 3c a7 a7 15 bd
       -0.0065142736 -0.005780805 0.02835482 -0.03653684
000080 10 6f f9 bb 73 47 91 bc 0f b5 c4 bc 54 a4 c3 bc
       -0.0076121166 -0.017734265 -0.024012117 -0.023882069
000090 23 66 1e 3d 58 bf 70 bc 30 cd 2f bc 68 00 07 3d
       0.038671624 -0.014694057 -0.010730073 0.03295937
0000a0 71 d0 98 3c 4d 87 18 bc 48 34 36 bb ba 37 8b bc
       0.01865408 -0.009309602 -0.0027802158 -0.016994346
0000b0 6d 05 ce bc 34 4f 72 3c 39 a7 a9 3b 88 de 59 bd
       -0.025149072 0.014789391 0.005177405 -0.053190738
0000c0 ff 0e 65 bd d3 0b ea 3c 7a 94 33 ba 6c 9e b3 bc
       -0.055922505 0.028570091 -0.0006850433 -0.021926127
0000d0 2a 87 fc bc bf da ed bc 4b 01 90 3b 9a e3 da 3b
       -0.03082617 -0.02903497 0.0043946854 0.0066799643
0000e0 d0 ed 44 bc 99 74 b0 3c de 9c af bb 7d 42 e2 bc
       -0.01201959 0.021539973 -0.005359276 -0.027619595
0000f0 45 15 e1 ba 1b de f6 bb c0 9c 08 bc 8a 75 90 bd
       -0.0017172477 -0.0075338013 -0.008338153 -0.07053669
000100 1b cd eb bb a9 00 73 ba bd a1 86 3c aa ab c3 bc
       -0.0071960813 -0.0009269813 0.016434545 -0.023885567
000110 c6 7b b6 3c 87 2f 68 3c cb b1 20 bd e7 31 32 bc
       0.022275817 0.014171488 -0.039232057 -0.010876155
000120 82 f4 7c bc eb 87 65 3b 34 b5 52 bc f3 71 15 3d
       -0.015439155 0.003502364 -0.012860585 0.036485624
000130 8f de 31 3b 5e ef 2f 3c 3f 14 3c bc 8b 5f a1 bc
       0.0027140712 0.010738222 -0.011479436 -0.019698879
000140 e2 ac 56 bb c9 82 ad bc 55 bf 90 bc b1 f8 97 3c
       -0.0032756855 -0.021180527 -0.01766936 0.018551202
000150 fc f6 bb bc b2 e7 32 3d a6 f2 45 bc 74 bc b5 3b
       -0.02294492 0.043677993 -0.012081778 0.005546147
000160 bf 66 ec ba cb 81 41 bc 80 50 f1 bb 62 81 e0 bc
       -0.0018035992 -0.01181073 -0.0073643327 -0.027405445
000170 06 45 35 bc be a9 8b 3c d8 c1 aa 3a 3e 20 f6 3b
       -0.01106382 0.017048713 0.0013027741 0.007511168
000180 43 69 23 3b 49 f8 0d bd da dd 48 bc 77 7a e7 3c
       0.0024934567 -0.03466061 -0.012259925 0.028256638
000190 a5 68 89 3c 57 a7 31 bd 0e 23 b3 bb 15 c9 65 bd
       0.016773531 -0.04337248 -0.0054668253 -0.05609997
0001a0 1b f1 c4 bc db 5f c3 bc 15 47 b6 3c ea 35 91 bb
       -0.02404075 -0.023849418 0.022250691 -0.004431476
0001b0 f5 b4 e2 3c 7a 51 5e 3c 80 fa 33 bc 31 01 4d bb
       0.027674178 0.01356923 -0.010985017 -0.0031281228
0001c0 ae fd 2c bd 51 93 b9 bc 99 34 30 bd 78 55 95 bd
       -0.042234115 -0.022653254 -0.04301891 -0.072916925
0001d0 a7 93 30 bd a9 70 e7 b8 22 95 39 3a 5c 1b bb bc
       -0.043109562 -0.00011035923 0.00070794125 -0.022840194
0001e0 6b d5 85 3c 8c 09 33 3c 7e a7 55 3a e8 45 94 3b
       0.016337117 0.010927569 0.00081502635 0.004524935
0001f0 30 6d ce 3a 17 5c dc bc 0c 6f e1 bc 92 76 43 3c
       0.0015749093 -0.02689938 -0.027518772 0.011930125
000200 6d bd 1a 3d e6 00 40 bc b2 0e a7 bc 0b 8a 8d 3c
       0.037778307 -0.011718964 -0.02039275 0.017277738
000210 a9 3c 03 3c 7e 4e 1d 3d 6d a2 a6 3c 41 54 42 3c
       0.008010068 0.038404934 0.020341123 0.011860908
000220 22 ad 8f 3d 31 ea c8 3c d3 a7 e0 3c 3c 22 14 bd
       0.07015444 0.024525734 0.027423775 -0.03616546
000230 15 72 06 bd a5 7c 11 3c 2a 63 7d 3c 91 34 84 3b
       -0.03282364 0.008879815 0.015465537 0.0040345867
000240 b5 4c 8a bc 76 ea a9 3b 9d bc c2 bc 4e 56 15 bd
       -0.01688228 0.0051854206 -0.023771578 -0.03645926
000250 91 92 e8 bc 74 51 1c 3d b5 02 b5 bc fd c8 ad bc
       -0.0283902 0.038163617 -0.022096017 -0.021214003
000260 a9 07 d6 bb 68 92 f5 bc 02 3c 3b bb b4 15 19 ba
       -0.006531675 -0.029977039 -0.0028569703 -0.0005839721
000270 fa 03 23 bc 40 fe e1 bc 44 c0 2c 3c 53 b9 61 3c
       -0.009949679 -0.027587056 0.010543887 0.013777095
000280 b5 97 56 bd a0 c1 58 bc 87 50 a7 bd 87 0f e3 bb
       -0.052390773 -0.013229758 -0.08169656 -0.0069293412
000290 a1 ff 4e bd 46 2e 11 3c 8b 95 47 bd bc 21 d7 bc
       -0.050536755 0.00886113 -0.0487266 -0.026261203
0002a0 b9 ce 8e bc 3a 6f e7 bc 94 b9 d0 bc 06 1c 91 3b
       -0.017432557 -0.02825128 -0.025479116 0.0044283895
0002b0 3a ec f0 3a 60 cd de bc 34 ab f9 bc e7 30 85 bb
       0.0018380948 -0.02719754 -0.030477144 -0.0040646675
0002c0 68 87 f4 ba c0 c7 04 bd e5 71 85 3c d7 11 42 bd
       -0.0018656077 -0.03241706 0.01628966 -0.047380295
0002d0 93 18 02 bd 28 5a c3 3a df 31 6e bc 14 ac f0 3c
       -0.031761717 0.0014904188 -0.014538257 0.029378928
0002e0 de 35 de bc 1f 47 22 bc e7 65 94 3a 5b 1f 50 bc
       -0.027125295 -0.009904652 0.0011321873 -0.012702788
0002f0 93 6f 76 39 1e 1f f3 3c cb 7e aa 3b e2 3d cb 3c
       0.00023501953 0.029677924 0.005203103 0.024809781
000300 06 4e ca 3c 9c a0 1b bc e2 65 5b 3c ec a6 9d 3b
       0.024695408 -0.0094987415 0.01339099 0.0048111584
000310 49 e4 9e 3c 61 f4 b0 bb a1 79 ba 3c 5b 25 3e bb
       0.019395964 -0.005400226 0.022763075 -0.0029013965
000320 cb cd c3 bc 84 56 5a 3c c9 9b 40 3c 9a a1 a6 ba
       -0.02390184 0.013326291 0.011755892 -0.0012712956
000330 d1 87 ee bb 35 1c f8 3c 23 97 15 3b 71 e2 97 bc
       -0.007279374 0.030286888 0.002282568 -0.018540593
000340 5f f5 4c bc 3e ae 8b 3b dc 95 fb bc e8 87 dc bc
       -0.012509673 0.0042627146 -0.030711107 -0.026920274
000350 ce 45 26 bd df 1c 7a bb 34 95 33 bc 6d 17 25 bc
       -0.040593915 -0.0038164181 -0.010960866 -0.010076386
000360 0f 0b 8c bc 6c 60 4d 3b 01 45 31 3c 2f 76 33 bc
       -0.017095117 0.003133799 0.0108196745 -0.01095347
000370 a6 02 55 3c e9 8d 80 3c f2 75 2a bd ba 4f 0e bd
       0.01300112 0.015692668 -0.041616388 -0.034744002
000380 4d fc 6e bc da d9 eb bc 7d fc f0 3c 48 2f b8 3b
       -0.01458652 -0.028790403 0.02941727 0.0056208707
000390 96 01 a2 3c f6 97 20 bd 1c 11 54 3c ea ca 0f 3d
       0.019776147 -0.03920742 0.012943532 0.035105623
0003a0 fd 05 87 3c c1 7b 49 3b 61 77 5e 3c ee 15 e6 ba
       0.016482348 0.003074393 0.013578267 -0.0017554143
0003b0 d3 74 4c 3c c4 94 77 bb f3 e7 13 3c a1 1a c1 3c
       0.012479025 -0.003777788 0.009027469 0.023572268
0003c0 bd c1 16 3d a4 c4 64 bc 32 1b 68 3c 00 3f 6b 3c
       0.036805857 -0.013962898 0.01416664 0.014358282
0003d0 8c 41 36 3d dd 1f 18 3d 6a ec 43 3b c8 61 8a 3c
       0.044496104 0.037139762 0.0029895552 0.016892329
0003e0 84 cd ff 3c eb 51 46 bc 2c a0 8a 3c f8 e4 b2 bc
       0.031225927 -0.012104492 0.016922079 -0.021837696
0003f0 c6 0a 1b 3c cc fa 33 3c ed b5 f8 bc e2 6a 24 bc
       0.009463018 0.010985088 -0.030360186 -0.0100352485

main.6.weight f4 [64]
000000 8f 45 75 3f 3e 1f 7c 3f 05 46 86 3f 36 04 76 3f
       0.95809263 0.9848517 1.0490118 0.96100175
000010 00 f3 80 3f a0 ce 7d 3f e1 dc 85 3f 44 0b 79 3f
       1.0074158 0.9914341 1.0458032 0.97282815
000020 ae d6 7f 3f e4 b1 85 3f 7c ae 81 3f d8 1f 7b 3f
       0.9993695 1.0444913 1.0131373 0.98095465
000030 66 53 7f 3f ee 6c 83 3f d0 ce 76 3f 64 da 7d 3f
       0.9973663 1.0267618 0.9640932 0.9916136
000040 cb f3 80 3f 3a 6e 87 3f 6b 97 80 3f f6 0a 78 3f
       1.00744 1.0580513 1.0046209 0.96891725
000050 4f da 7d 3f 8c 76 78 3f 2c c2 7f 3f c5 0c 81 3f
       0.9916124 0.9705589 0.9990566 1.0082022
000060 68 0a 78 3f 9d 5b 80 3f 33 e9 86 3f 97 12 7e 3f
       0.9689088 1.0027958 1.0539917 0.99247116
000070 45 24 83 3f 13 1b 81 3f 67 4d 83 3f cb bd 7b 3f
       1.0245444 1.0086387 1.0257996 0.98336476
000080 2a 37 81 3f 84 45 7c 3f 1f f1 7d 3f d0 04 81 3f
       1.009496 0.9854357 0.99196047 1.0079594
000090 b3 8c 80 3f 6a 15 7f 3f 70 dc 7a 3f ac 0c 73 3f
       1.0042938 0.9964205 0.9799261 0.9494121
0000a0 a9 9b 70 3f c6 31 74 3f 6e dc 7e 3f 36 4d 80 3f
       0.9398752 0.9538845 0.995551 1.0023563
0000b0 5c dc 83 3f ff 05 7f 3f 15 a5 83 3f af a2 7d 3f
       1.0301623 0.99618524 1.0284754 0.9907636
0000c0 02 96 7a 3f a0 3c 81 3f 95 b2 81 3f c4 be 7b 3f
       0.97885144 1.0096626 1.0132624 0.9833796
0000d0 a4 43 7b 3f 5f e4 83 3f 61 16 85 3f 24 3e 80 3f
       0.98150086 1.0304068 1.0397455 1.0018964
0000e0 b7 ce 83 3f 54 a2 80 3f 6d 39 80 3f 0e 5c 7e 3f
       1.0297459 1.0049539 1.0017525 0.99359214
0000f0 b1 67 80 3f ee dc 7d 3f 2f ac 78 3f b7 d4 78 3f
       1.0031644 0.99165237 0.9713773 0.9719958

main.6.bias f4 [64]
000000 70 bc 47 bd 5e 9d 1a bd 50 fe cf 39 32 a8 12 bd
       -0.048763692 -0.037747733 0.00039671594 -0.035804935
000010 23 a4 5c bc cb 34 9e bc d3 d7 84 3c 38 29 cb bb
       -0.013466868 -0.019312283 0.016216194 -0.006199982
000020 0b 73 55 bd 70 aa 3c 3b d9 08 e5 bc e1 43 81 bc
       -0.052111667 0.0028788112 -0.02795832 -0.015779437
000030 d1 37 1d bd 7c 28 02 3c 09 42 19 bd 4f e2 49 bc
       -0.03838331 0.007944223 -0.03741649 -0.012322023
000040 f0 98 2d bc 70 92 de 3c 82 91 8b 3c 7b 21 67 bc
       -0.010595545 0.027169436 0.017037157 -0.014107103
000050 47 17 13 bd 1b 3f ad bc bb 8e 9e bb f4 5a 33 ba
       -0.03591087 -0.021148255 -0.004838792 -0.0006841861
000060 d4 20 64 bc 3c e7 94 b9 91 3f 4c bb 14 8c 3d bd
       -0.013923842 -0.00028401043 -0.0031165818 -0.046276167
000070 7a f2 8c bc 58 6b 03 3b 71 22 58 bc d1 38 c3 bc
       -0.017205466 0.0020052996 -0.013191805 -0.023830803
000080 8f 19 cf bc 5c 9b b9 bc 6a b9 84 bc 49 1f 30 bd
       -0.025280742 -0.022657089 -0.016201694 -0.042998586
000090 9d bd 40 bc 3c 13 03 bd 43 22 ec bc d6 46 97 bc
       -0.011763957 -0.032000765 -0.028824931 -0.018466394
0000a0 38 89 13 bd e7 40 84 bc cc d4 dc bc ef d4 2e bd
       -0.036019534 -0.01614423 -0.026956938 -0.042683538
0000b0 6f 60 fe 3c 8a e7 06 bc 56 ec 52 3c 15 f7 49 bc
       0.031051842 -0.008233914 0.01287373 -0.012326975
0000c0 bb 84 84 bc 1c d2 29 bc ad 1b 68 3c d5 8b 73 bc
       -0.016176572 -0.010365035 0.014166755 -0.0148648815
0000d0 f1 81 47 bc f7 59 dd bc de ce 67 bc 86 ea cf bb
       -0.012176977 -0.027020438 -0.014148442 -0.006345096
0000e0 00 8c 05 3c b7 75 fc bb 85 45 e8 bc 74 15 0d bd
       0.008151054 -0.0077044624 -0.028353462 -0.034444287
0000f0 b6 97 36 3c a9 b2 e5 bc df fe b3 3a 90 02 c8 bc
       0.011144569 -0.028039293 0.0013732574 -0.024415284

main.6.running_mean f4 [64]
000000 67 ed a1 be e8 f2 f2 bd 88 ca 0a 3e b0 94 12 be
       -0.31626436 -0.11862737 0.13553822 -0.14314532
000010 7f 9a 33 3e 1e 41 c0 3e b8 d1 f5 be 05 95 86 3d
       0.17539404 0.3754968 -0.48011565 0.06571392
000020 0f fc 38 be be ed 77 3e da fd 33 bf 7c eb 25 bf
       -0.18064903 0.24211785 -0.7030922 -0.64812446
000030 7d 4e cf bd c2 9e ff bd a3 49 fc be e7 e9 0e 3f
       -0.10122392 -0.124814525 -0.4927493 0.55825657
000040 78 cb 86 bd 75 db a7 be 5e ce 3e bf 55 59 e2 3e
       -0.06581777 -0.3278462 -0.7453364 0.4420878
000050 05 af 9c bd 16 30 35 bf 88 85 4d 3f 89 84 ff be
       -0.0765057 -0.707765 0.8028188 -0.49905804
000060 e2 7d 5c be 18 48 63 bf ef 99 e0 bd 43 54 20 3d
       -0.21532395 -0.8878188 -0.109668605 0.03914286
000070 ff 02 23 3f 63 f3 f0 3d 1b 25 51 3f b8 27 08 bf
       0.63676447 0.11765172 0.81697243 -0.53185606
000080 96 5a 5a 3e 17 af 23 bf f8 93 19 3f d3 3c d4 3e
       0.21323618 -0.6393904 0.5999141 0.41452655
000090 a4 8e a5 be 74 ce 1b bf fe 71 2f 3d 17 df 83 bf
       -0.3233539 -0.608619 0.04283332 -1.0302457
0000a0 fd 1b e9 be fd 7d c7 3e 31 fb 02 3e 88 8d 68 be
       -0.45529166 0.3896331 0.12791134 -0.2271024
0000b0 3a 9d c4 be 7d 7d 39 be fd 5d 07 3e e1 8c 2f bf
       -0.38401204 -0.18114276 0.13219447 -0.6857434
0000c0 54 69 ec 3e f3 4d ef bd 6a aa cb be a6 10 7d 3e
       0.4617411 -0.116847895 -0.39778453 0.24713382
0000d0 b9 e3 c3 3a c9 d2 a6 3e 92 d2 a1 3e e4 15 30 bf
       0.0014945186 0.3258269 0.31605965 -0.687834
0000e0 5b 1e a5 be 7c 08 70 bd 6d ea c2 be cf c0 bb bc
       -0.32249722 -0.05860184 -0.38069478 -0.022919087
0000f0 1a f9 eb 3e 75 0e bf bd 7c 9b 5f be a8 07 85 bc
       0.46088487 -0.09328929 -0.21836656 -0.016239002

main.6.running_var f4 [64]
000000 d4 4c 72 3f d0 9e 82 3f 2b 5f e3 3f ce d9 06 3f
       0.9464848 1.0204716 1.7763418 0.52676094
000010 d9 02 3c 3f 1d 1f 54 3f c1 be 84 3f 79 17 87 3f
       0.73441845 0.82859975 1.0370713 1.0554038
000020 d9 c8 4a 3f ea 56 77 3f 1d 00 7b 3f 58 1b 15 3f
       0.7921272 0.96616995 0.9804705 0.5824485
000030 f4 3e 6f 3f 95 99 43 3f a2 b6 97 3f 6e 60 3c 3f
       0.93455434 0.7640622 1.185261 0.7358464
000040 67 3c 0f 3f 55 34 c1 3f eb e6 5f 3f c9 8a 43 3f
       0.5595154 1.5094095 0.8746173 0.76383644
000050 89 74 1d 3f 62 ff a4 3f 51 0e 2d 3f bf f3 8f 3f
       0.61505944 1.2890437 0.6759997 1.124626
000060 5d f4 20 3f 95 9e 9d 3e 41 d2 60 3f 69 d3 50 3f
       0.6287287 0.3078505 0.8782082 0.81572586
000070 7c 54 55 3f 7d 37 d7 3f 90 8b 71 3f a5 6d 10 3f
       0.8333204 1.6813809 0.9435358 0.56417304
000080 5b 00 e2 3e 2d a6 5c 3f d9 45 46 3f b1 92 a9 3f
       0.44140896 0.86191064 0.7745033 1.3247892
000090 05 66 8e 3f 7a a6 37 3f 1a a4 f3 3e fa 1c 1a 3f
       1.1124884 0.717384 0.47586137 0.60200465
0000a0 4f a5 80 3f ae 60 d3 3f 11 7b 7f 3f 47 66 46 3f
       1.0050448 1.6513879 0.9979716 0.7749981
0000b0 12 0c 1e 3f c9 4d 21 3f 3a e0 0d 3f 50 4d b9 3f
       0.6173717 0.63009316 0.5542027 1.4476719
0000c0 97 72 92 3f 04 eb 82 3f c9 b2 b6 3f 00 5f 82 3f
       1.144122 1.0227971 1.4273311 1.0185242
0000d0 d2 c1 14 3f 4b ff 04 3f 3b 15 15 3f 4f f3 8f 3f
       0.58108246 0.51952046 0.5823552 1.1246127
0000e0 a5 14 35 3f a3 39 20 3f df 8a bb 3e f3 b5 3b 3f
       0.70734626 0.62587947 0.36629388 0.7332451
0000f0 fe ea 2a 3f 6e 13 b9 3f 21 f8 74 3f 11 f9 32 3f
       0.6676482 1.4459054 0.95691115 0.69911295

main.8.weight f4 [128, 64, 4, 4]
000000 0b a4 b8 3c f0 88 10 3d 87 ec 23 bc a9 16 b1 3c
       0.02253916 0.035286844 -0.010005123 0.02161725
000010 00 c3 8d 3c 51 47 df bc e7 3d e9 3c cf 68 79 3c
       0.017304897 -0.027255686 0.0284719 0.015222742
000020 7e d2 d1 3b ce 19 9b 3c a9 ad e2 3c fc 42 52 3c
       0.0064032665 0.018933203 0.027670698 0.012833353
000030 29 44 fa 3c 68 0c e7 3c b8 86 be 3c c7 a2 77 bc
       0.03055008 0.028204158 0.023257598 -0.015114493
000040 8c 43 6c 3c 5f 4a ec 3c 82 7f 4b bd d3 9f 0f bc
       0.014420401 0.028844057 -0.049682148 -0.008766132
000050 87 b0 55 bc 2e f1 6c 3a 3a 43 f7 bb 1e f5 d8 3c
       -0.013042576 0.0009038624 -0.007545856 0.026484068
000060 8f d7 f3 3c cb 30 b0 3c 70 5e ac 3c 48 66 1a 3b
       0.029765872 0.021507641 0.021041125 0.00235595
000070 fb ca 99 3c 6c 45 c6 3c d5 d5 20 bb f4 dd d7 3c
       0.018773546 0.024203025 -0.0024541516 0.026350953
000080 93 ad d8 bc 34 92 95 bb 30 cc 95 bc 5f 19 70 3d
       -0.026449954 -0.004564548 -0.01828584 0.058617946
000090 20 9c 0f bd 96 b6 20 3b 87 03 d0 bb 07 03 bf bc
       -0.035061 0.0024522892 -0.0063480767 -0.023316873
0000a0 39 38 51 bd 70 26 9c bd 0a 88 87 3c 89 44 10 bc
       -0.05107901 -0.07624519 0.01654436 -0.008805403
0000b0 82 f4 e1 bc 89 fb ac bc 46 d9 ae ba c9 99 75 bc
       -0.02758241 -0.021116035 -0.0013339899 -0.0149902785
0000c0 b9 ba 7e 3b 9c 80 97 bc ff 1c a7 bc 25 23 31 bd
       0.003886862 -0.018493943 -0.020399569 -0.043246407
0000d0 41 4d 32 3d 4c 8e 0c bb 37 77 94 bb 21 11 d5 3c
       0.043530706 -0.002144712 -0.004530813 0.026009144
0000e0 81 f2 aa 3c 55 b2 16 3d 72 37 df 3c 31 61 16 3d
       0.020867588 0.036791164 0.027248118 0.036713783
0000f0 4c a1 23 bd e8 f8 56 3c 55 bb d7 bc 7f f0 e5 3c
       -0.039948747 0.013120867 -0.026334444 0.028068779
000100 f5 5a de 3c 62 da a6 3c bd 79 6b bd d6 0a 69 bd
       0.027142981 0.020367805 -0.057489146 -0.0568951
000110 8a 5f 39 3c 6f 7f 7e 3d 7f cb 30 3d db d7 8f bc
       0.011314282 0.06213325 0.04316282 -0.017558983
000120 45 73 ef 3c 7f 2d e4 3c 86 7e 19 3c 18 17 80 bb
       0.02922977 0.027853725 0.009368544 -0.003909003
000130 62 90 20 3c 50 01 20 bb e9 94 9a bb e1 cb 3f 3b
       0.009800049 -0.0024414845 -0.0047174585 0.0029265808
000140 36 11 d6 bc 4c 33 a9 3c b6 31 a7 3c 57 7f ba 3c
       -0.026131254 0.020654343 0.020409446 0.022765798
000150 fb d6 fe bb c3 fa 85 bc ac 71 d4 bb b3 15 eb bc
       -0.0077770925 -0.016354924 -0.0064832773 -0.02869687
000160 36 c3 56 bd 6f 23 2e bd 38 8c 92 3c d8 be 30 3d
       -0.05243226 -0.04251426 0.017889127 0.043150753
000170 d5 09 09 3c 5d cb 91 3b 10 a2 d0 3c b0 37 35 bc
       0.008364161 0.0044492916 0.025467902 -0.01106064
000180 eb dc 03 bd ee db b7 3c e3 8a e7 3c 92 4d 4e bd
       -0.032193106 0.022443738 0.028264469 -0.050366946
000190 fa e1 01 3d 5b 2a 9b 3c 01 9c 17 3d f8 bd 79 3d
       0.03170965 0.018941095 0.03701401 0.060972184
0001a0 eb 72 a5 3c ba 20 d2 3a a9 59 0d 3b 10 8f fa 3c
       0.020196399 0.0016031482 0.0021568334 0.030585796
0001b0 e2 ff 7a 3c 22 44 31 bd 05 76 0e 3c 1e e2 c0 3d
       0.015319796 -0.043277867 0.00869513 0.094181284
0001c0 d5 5e 35 3c 84 70 c2 3c 6a 42 55 3d ce f1 84 3c
       0.011069973 0.023735292 0.05206529 0.016228583
0001d0 0a 5a 3f bd 57 5e 1b 3c 5e 34 fe 3c f7 8d 25 3c
       -0.046716727 0.009482942 0.03103083 0.010104648
0001e0 e2 ab 47 bc e0 41 90 ba 42 8f 29 3b 84 15 c5 3b
       -0.012186976 -0.001100596 0.0025872742 0.0060145278
0001f0 8f b6 50 bc 1b 2d a7 3c b4 b3 95 3b 06 94 9a 3b
       -0.012738838 0.02040725 0.0045685414 0.004717353
000200 47 d6 b5 3c 08 58 3e bc 17 6a 5a bc 21 fd 00 3b
       0.022196902 -0.011617668 -0.013330958 0.0019682127
000210 d7 0e 94 3c 86 f2 3d 3d f5 97 96 bc fd 5b 93 36
       0.018073482 0.046373866 -0.018383006 4.3916502e-06
000220 4a 1d d1 3c a7 81 a7 ba 41 cf c2 3c ac 0f c8 3c
       0.025526661 -0.0012779728 0.023780467 0.024421535
000230 d5 57 9f 3b 4e 7a 68 bb a3 27 ce bb 93 9c 8f 3c
       0.0048627653 -0.003547329 -0.006291346 0.017530715
000240 81 1d a8 3d 3f e5 37 bd 03 bf c5 3c d7 9b a5 bc
       0.082087524 -0.04489636 0.024138933 -0.020215912
000250 0b 85 e6 ba 10 8a b2 3b 21 0c a1 3b 8e 6a 49 3b
       -0.0017587257 0.0054485872 0.004914776 0.0030733678
000260 30 72 16 bc 00 36 93 bc f7 fd 16 bc b2 85 20 bd
       -0.009182498 -0.017970085 -0.009215823 -0.03919
000270 e4 01 18 bd 34 e3 cc bc ee 53 37 3c cc f1 0c 3d
       -0.037111178 -0.025010683 0.011189444 0.034410283
000280 23 6e 6a 3c ba 92 50 3c e4 9e 4b 3c 65 d7 1c 3d
       0.014308485 0.012730295 0.012428019 0.038291354
000290 1c a8 34 3c 83 27 b9 3c fe e1 aa ba 69 6f be 3c
       0.0110264085 0.022601848 -0.0013037322 0.023246484
0002a0 92 f8 c3 3c ac 9d 6d 3c a7 03 19 3c f1 66 8b bb
       0.023922238 0.014502924 0.00933925 -0.004254215
0002b0 31 c4 6a 3b 27 27 ab 3c 5c eb 6c 3d 71 65 a3 3c
       0.0035822506 0.020892693 0.057841644 0.019945832
0002c0 d3 b7 a6 bc ab d3 33 3c a1 48 a1 3c 98 d2 6a bc
       -0.020351326 0.010975759 0.019687952 -0.014332436
0002d0 87 c2 ff 3c 4f c9 f0 bc 21 de b8 bc ed db c2 3c
       0.031220688 -0.029392866 -0.022566857 0.02378651
0002e0 bc 99 ae bb 80 67 97 bc 7d d9 42 bc 9d a2 af bc
       -0.005328385 -0.01848197 -0.011892674 -0.021439845
0002f0 0c 22 65 3c 0c 30 10 3d 1f 99 c9 3b c8 67 af bc
       0.013985168 0.03520207 0.0061522867 -0.021411791
000300 60 56 03 bc 21 65 2d bc 33 76 81 bc 37 ba c0 bb
       -0.008016199 -0.010583193 -0.015803432 -0.0058815735
000310 18 e1 47 3b 3c 10 b7 3c 98 5f 72 3c 9f 6d ce b9
       0.0030499157 0.022346608 0.014793299 -0.00039373056
000320 f3 7f a0 3c 87 ab e8 3c 76 23 6d bc 7a 34 be bc
       0.019592261 0.028402103 -0.014473787 -0.023218382
000330 d1 a8 77 39 84 12 12 3c 43 63 51 bd 3a 5a 26 3c
       0.00023618645 0.008915547 -0.051120054 0.010153348
000340 0d b1 e0 3b 89 4f 0a bd a4 b6 55 bd 64 0a 01 3c
       0.0068570436 -0.033767257 -0.052176133 0.0078760125
000350 90 5f f4 3b b0 f7 fc 3b 75 6d 43 bd ff 2a c0 3c
       0.007457681 0.0077199563 -0.04771181 0.023458002
000360 ae e4 08 3d 34 3a 84 3d 88 cc 0b 3c 8b e6 cd 3b
       0.03342121 0.06456414 0.008532651 0.0062835864
000370 f3 dc 0f 3c d3 3a e2 bb 87 9d 83 bc e9 f5 5d bc
       0.008780706 -0.006903985 -0.016066326 -0.013547399
000380 82 61 9b bc 7c d6 1b bd 65 10 2f bd 7b 7b 3d bc
       -0.018967394 -0.038046345 -0.042740244 -0.011565085
000390 fb a2 b0 3b cd e5 d3 bc 6b 92 c3 3c 64 e0 c3 bc
       0.0053905225 -0.025866413 0.023873528 -0.023910709
0003a0 43 dd 64 3d c8 0a ca 3c f7 ec 0b 3c 25 a0 2b bc
       0.055875074 0.024663344 0.008540384 -0.010475193
0003b0 e4 7a 4e 3c 27 3d 7b bb 08 4f 52 ba 5c 01 b2 3c
       0.012602542 -0.003833601 -0.0008022641 0.021729164
0003c0 c4 02 89 bc fa f4 c6 bc 69 b9 89 bc ed 53 a1 3b
       -0.016724952 -0.024286736 -0.016812043 0.004923335
0003d0 27 dc 4b bc e6 4c 97 3b 90 d5 2a bd e7 96 55 bd
       -0.012442625 0.0046173213 -0.041707575 -0.052145865
0003e0 ff 5f 7f 3b a3 be 22 bd bb b9 c6 bc 29 55 81 bd
       0.003896713 -0.039732587 -0.024258485 -0.06315071
0003f0 de 23 a1 3c 83 be 70 3c 3e 18 5d 3c e5 36 bb bc
       0.019670423 0.014693859 0.013494549 -0.022853324

main.9.weight f4 [128]
000000 3c 95 90 3f 81 92 8c 3f b8 64 83 3f 28 10 8c 3f
       1.1295543 1.098221 1.0265112 1.094243
000010 a3 b2 87 3f 01 4d 83 3f 95 a4 89 3f 50 62 8f 3f
       1.0601391 1.0257875 1.0753351 1.1201878
000020 e6 a6 8a 3f c8 05 87 3f 5b 4e 8b 3f 52 35 87 3f
       1.0832183 1.0548639 1.0883287 1.0563147
000030 f6 9d 90 3f 0c 1c 86 3f 8c 9e 82 3f bd 64 8b 3f
       1.1298206 1.0477309 1.0204635 1.0890118
000040 02 8f 88 3f 99 17 86 3f 94 11 8c 3f 87 6d 83 3f
       1.0668643 1.0475951 1.0942864 1.02678
000050 34 1c 87 3f 8c 0d 8c 3f c0 d4 8a 3f 3a 57 84 3f
       1.0555482 1.0941634 1.0846176 1.033912
000060 ef 6a 8b 3f 2a c9 7e 3f 16 30 89 3f 72 3c 89 3f
       1.0892009 0.995257 1.07178 1.0721571
000070 eb 78 83 3f f1 d3 89 3f 28 88 84 3f 26 d8 7c 3f
       1.0271276 1.0767804 1.0354052 0.98767316
000080 72 4c 90 3f 01 5c 87 3f 71 f4 8a 3f 79 76 89 3f
       1.1273329 1.0574952 1.0855848 1.073928
000090 11 b3 89 3f 5a 47 87 3f b5 05 85 3f 6e 9f 86 3f
       1.0757772 1.056865 1.0392367 1.0517404
0000a0 59 cb 84 3f 3a 8c 8b 3f 04 5b 89 3f e4 9c 87 3f
       1.0374557 1.0902169 1.0730901 1.0594754
0000b0 37 9c 8b 3f 4b 9a 88 3f 16 9f 7e 3f 90 c3 86 3f
       1.0907048 1.0672086 0.99461496 1.0528431
0000c0 51 e2 81 3f 47 4f 85 3f dc d7 83 3f 97 75 88 3f
       1.0147191 1.0414819 1.030025 1.0660886
0000d0 1a 37 84 3f 94 ef 83 3f 5f fe 89 3f a6 49 8a 3f
       1.0329316 1.0307488 1.0780753 1.0803726
0000e0 30 94 84 3f 75 1c 87 3f e5 34 8d 3f c2 ed 8a 3f
       1.0357723 1.0555559 1.1031767 1.0853808
0000f0 30 da 86 3f 0a 1d 8b 3f 1a 81 84 3f 4a a5 8a 3f
       1.0535336 1.0868237 1.0351899 1.0831692
000100 67 e8 87 3f fa a1 85 3f 33 9e 83 3f d2 82 84 3f
       1.0617799 1.0440056 1.0282654 1.0352423
000110 ae f4 7a 3f c3 7a 83 3f 78 97 88 3f dc 12 8d 3f
       0.980296 1.0271839 1.0671225 1.102138
000120 7b 47 82 3f 74 13 82 3f 35 ec 86 3f 24 1c 88 3f
       1.0178064 1.0162187 1.0540835 1.0633588
000130 ce 12 86 3f 6d bc 85 3f 68 65 83 3f a3 00 87 3f
       1.0474489 1.0448128 1.0265322 1.0547069
000140 dc cb 8c 3f a7 36 87 3f e5 5d 80 3f a3 50 84 3f
       1.0999713 1.0563554 1.0028654 1.0337108
000150 56 b9 89 3f bd 47 87 3f 0c 1f 8c 3f 50 3e 89 3f
       1.0759685 1.0568768 1.0946975 1.0722141
000160 c0 68 88 3f b5 3d 86 3f 9c 33 84 3f 86 68 84 3f
       1.0656967 1.0487581 1.032825 1.0344398
000170 5f 96 83 3f 84 c3 8e 3f 90 72 85 3f ca 9d 8f 3f
       1.0280265 1.1153417 1.0425587 1.1220028
000180 52 6b 84 3f 04 b2 85 3f c8 d3 84 3f c6 78 81 3f
       1.0345252 1.0444951 1.037713 1.0114982
000190 f0 04 83 3f 84 08 8b 3f f8 ee 84 3f 0b 00 87 3f
       1.0235882 1.0861974 1.0385427 1.0546888
0001a0 eb c3 85 3f 73 40 85 3f ba 2e 84 3f fb c7 83 3f
       1.0450414 1.0410293 1.032676 1.0295404
0001b0 e3 f5 85 3f ea 09 80 3f 14 6a 84 3f 68 13 83 3f
       1.0465664 1.0003026 1.0344872 1.0240297
0001c0 da cb 88 3f ff 23 82 3f fb 85 8c 3f 1f 72 8b 3f
       1.068721 1.0167235 1.0978388 1.0894202
0001d0 65 45 86 3f 74 fb 84 3f 3d 71 81 3f 7f 75 81 3f
       1.0489928 1.0389237 1.0112683 1.0113982
0001e0 e6 ba 88 3f ef 47 8b 3f ef fc 85 3f a7 cc 87 3f
       1.0682037 1.0881327 1.0467814 1.060933
0001f0 b4 4d 82 3f 91 d6 84 3f ee ec 87 3f bd c7 8a 3f
       1.0179963 1.037798 1.061918 1.0842205

main.9.bias f4 [128]
000000 b5 a0 f6 3c 7e d8 a5 3c 19 4a ce 3a ea 36 86 3c
       0.030105928 0.020244833 0.0015738636 0.016383607
000010 3a 46 ad 3c f1 67 94 3c 2b d7 4e 3c fb 48 31 3d
       0.02115165 0.01811597 0.012624542 0.04328249
000020 17 ca 29 3d de 4c a7 3c 27 15 12 3b 39 e7 b2 3c
       0.041452494 0.020422395 0.002229044 0.021838771
000030 3d b7 4f 3d 54 f7 54 3c f6 44 8c 3a f2 9b b8 3c
       0.05071186 0.012998421 0.0010701704 0.022535298
000040 18 34 1b 3b 30 e7 76 3c 6a 4f e7 3c 3e 50 c5 3c
       0.0023682173 0.015069768 0.02823611 0.024086114
000050 23 83 e1 3b 32 1c cd 3c c4 12 91 3c 05 5e 1c 3c
       0.006882088 0.025037859 0.017709143 0.0095439
000060 53 c0 5c 3a 10 de 8d bb 54 fd a5 3c 74 aa 22 3c
       0.00084209925 -0.0043294504 0.020262398 0.0099283345
000070 7f 23 b0 3b ef 64 a7 3c c0 e2 e4 3c 0a cc b3 3c
       0.005375325 0.020433871 0.027940154 0.02194788
000080 9b 65 33 3d 83 77 2e 3c b9 ba db 3c 5d 9d 0b 3d
       0.04379807 0.010648611 0.026822435 0.03408562
000090 1c 67 83 3c aa 29 58 3c 37 02 e1 3c 26 cb e0 3a
       0.016040377 0.013193527 0.027466876 0.0017150387
0000a0 e8 4a 00 3d 53 75 23 3d d2 3d 82 3c 62 10 1e 3b
       0.031321436 0.03990681 0.015898619 0.0024118652
0000b0 7b cf 02 3d 80 a7 bb 3c dc 5d 3e 3b bf 82 88 3c
       0.03193615 0.022907019 0.0029047644 0.016663907
0000c0 fe 62 1b 3b 2b b5 85 3c 02 66 b6 bb 11 cb e6 3c
       0.0023710127 0.01632174 -0.0055663595 0.028173001
0000d0 a9 84 28 3d ad 28 5b 3b 08 66 1d 3d 7b c7 be 3c
       0.04114214 0.0033440993 0.038427383 0.02328848
0000e0 37 89 bc 3c a2 4d e6 3c 13 4a 9a 3c 5c fc 15 3d
       0.023014648 0.02811319 0.01883415 0.03661762
0000f0 7f 49 fd 3b d3 a7 45 3c 42 80 d9 3b 8e cd 97 3c
       0.0077297087 0.012063938 0.006637604 0.018530633
000100 c5 e3 0b bc 3e 78 17 ba 3f 33 22 3b d5 b6 0f bb
       -0.008538191 -0.00057781104 0.0024749783 -0.0021929045
000110 3a b3 ff bb d7 99 20 3c 78 ee c8 3c 9f 9d 0f 3d
       -0.007803348 0.009802303 0.024527773 0.03506243
000120 cc c9 94 3b ac 4f 2f 3b 16 82 a7 3c f5 94 e2 3c
       0.0045406576 0.002675037 0.020447772 0.027658919
000130 34 75 a3 3c dd 7f cd 3c ba dd 67 3c 16 6d 56 3c
       0.019953348 0.025085384 0.014151985 0.013087532
000140 e7 e3 9c 3c 06 45 c2 3c 4b 16 b9 3b d6 68 43 3c
       0.019151641 0.023714554 0.0056484095 0.01192685
000150 21 6a e8 3c 91 c4 05 3d cc a4 37 3c 76 f9 ed 3a
       0.028370919 0.032658163 0.011208724 0.001815601
000160 f6 8c 84 3c f0 07 14 3c 77 52 34 3c f9 9e 13 3c
       0.016180497 0.009035096 0.011005989 0.00901007
000170 1d 46 5e 3b 99 cc cc 3c 9d 07 a3 3c a3 a9 14 3c
       0.0033916302 0.024999904 0.019901091 0.009073648
000180 87 44 7b 3b 53 47 0b 3d 0d a3 72 3c b7 d6 62 bb
       0.0038340406 0.034003567 0.014809382 -0.0034612843
000190 fa c3 f7 3b 67 42 39 3d 1d 44 9f 3c e4 5c 88 3d
       0.007561204 0.04522934 0.019441659 0.066583425
0001a0 44 0e 94 3c f1 e2 07 3d a8 73 97 39 3f 03 d6 3c
       0.018073209 0.033175413 0.00028887135 0.026124595
0001b0 09 fc d9 3c 1f 87 48 3c 3e 48 f1 3b e7 fb 75 3c
       0.026609438 0.012239247 0.0073633483 0.0150136715
0001c0 be 53 3a 3d cd bf 13 3c 7c 70 0e 3d b8 09 2d 3c
       0.04549002 0.009017897 0.034775242 0.010561399
0001d0 4f eb 10 3d bd 49 4a 3c fd fe 12 3c b8 7e 38 3c
       0.035380658 0.012346682 0.008971927 0.011260681
0001e0 c0 fe 35 3d 83 51 b4 3c ee 76 f2 3c 6a 93 05 3d
       0.0444324 0.022011524 0.029597726 0.032611288
0001f0 4f c1 4a 3c 28 42 f9 3c 14 ac 1f 3d e5 de 8b 3c
       0.01237519 0.030427054 0.038982466 0.017074058

main.9.running_mean f4 [128]
000000 e8 23 b0 bc ef 51 34 3e 17 10 dc bc 81 4a c4 3e
       -0.021501496 0.1760938 -0.026863141 0.38338092
000010 fe f5 0f be 5e a0 74 3d 52 0b 4a 3e 56 d1 09 be
       -0.14058682 0.05972325 0.19730881 -0.13458762
000020 29 dd 18 be 7d eb 46 bf a5 d5 53 bd 85 62 e1 3e
       -0.14928116 -0.77703077 -0.05171742 0.44020477
000030 89 f9 ad 3d fb d3 39 be e7 1e d4 3e e8 b7 5e be
       0.08494861 -0.1814727 0.41429827 -0.21749842
000040 be 50 c7 3e 81 83 55 be 88 39 e0 bd 78 9a e7 be
       0.3892879 -0.20850946 -0.10948473 -0.45235038
000050 3d d4 3b 3e 64 19 69 3e 94 85 05 bf e5 a5 a4 be
       0.18342681 0.22763592 -0.5215695 -0.32157817
000060 1e 9e 2d be e6 d3 37 3e e8 7d 98 3d 7c c9 8c 3e
       -0.16954848 0.17951927 0.0744589 0.2749747
000070 fa 9a 65 be f1 27 55 be d0 6d 6d bd d2 98 bb be
       -0.224224 -0.20816018 -0.057966053 -0.3664003
000080 9d 66 8e 3e 1b 10 2e bf ad 67 58 3e d1 6b 4d be
       0.27812663 -0.67993325 0.21133299 -0.2006066
000090 27 90 eb be 5e a1 94 be 86 96 80 bf 6d a0 00 bd
       -0.46008417 -0.29029363 -1.0045936 -0.031402994
0000a0 93 0f 50 be b1 00 ce be 8b ee 22 3d b7 dd a3 be
       -0.20318441 -0.40234903 0.039778274 -0.32005093
0000b0 d6 e0 f6 be d3 7e 7c 3e 18 56 c3 3e 85 1d af 3e
       -0.4821841 0.24657755 0.38151622 0.3420221
0000c0 e9 ff 05 be 1d c4 ce bd d0 be 96 3e e9 36 90 bd
       -0.13085903 -0.100959994 0.29442453 -0.07041723
0000d0 56 77 ff be 7c cf 61 bc 07 dd 6e 3f 1b d0 2a be
       -0.49895734 -0.013782378 0.9330601 -0.16680948
0000e0 05 46 07 bf 33 74 a2 be 75 2e 9c 3e 38 e9 da be
       -0.52841216 -0.31729278 0.30504194 -0.42756057
0000f0 41 4a 5a 3e dc a4 a6 bd 50 db b1 3e cd 0e b8 3e
       0.21317388 -0.08136913 0.34737635 0.35948792
000100 87 5e 7e 3d 15 01 d1 be d5 33 ab be bf 71 c1 be
       0.062101867 -0.40821138 -0.33437982 -0.37782094
000110 45 55 0c 3e 58 89 de be ec 25 0a 3e d2 b7 1c be
       0.13704403 -0.4346416 0.13491029 -0.15304497
000120 f5 66 ca be ce 74 7d 3c 5f b8 34 3e f2 0f 99 3d
       -0.39531675 0.015469743 0.17648457 0.074737445
000130 d3 bd cb bc d2 5f 0e bf 8d 79 0a 3f 01 e2 c6 3e
       -0.024870789 -0.5561496 0.5409172 0.38844302
000140 a2 28 91 bd 93 4d b6 be ef 06 25 bf 7d 12 02 be
       -0.07087828 -0.3560606 -0.64463705 -0.12702365
000150 7a 9f 45 3d b8 ca 82 3e a6 6a b9 3e fb 62 6f bd
       0.04824779 0.25545287 0.3621418 -0.058444005
000160 c2 50 90 bd 78 99 4f 3d 41 da b8 3d 79 73 53 bf
       -0.07046653 0.05068347 0.09026004 -0.8259807
000170 01 dc 1c be 05 a0 cc bd 2c 9a 41 3e 87 f8 13 3f
       -0.153183 -0.09991459 0.18906468 0.578011
000180 b2 93 3b 3e 00 e6 c0 3e 5e 54 b4 bd ac d1 d7 be
       0.1831806 0.37675476 -0.08805154 -0.42152154
000190 28 24 1f bf 65 a2 5a bf 30 43 e7 be 42 40 b0 bd
       -0.62164545 -0.85404044 -0.45168447 -0.08606006
0001a0 49 fe 48 be 59 c5 b0 3e 03 55 dc 3d d1 93 19 3f
       -0.19628252 0.34525564 0.10758402 0.59991175
0001b0 92 7b 4e 3e 87 f3 1c be 65 c3 59 3f 9e 3b 8e 3f
       0.20164326 -0.15327273 0.85063773 1.1111944
0001c0 7f 27 f1 be 07 b4 95 be 90 d6 93 3e ff e6 0a 3d
       -0.47100446 -0.29238912 0.28874636 0.0339117
0001d0 cc 3e 24 bf ac 0d 46 3e 78 77 75 be 31 b6 56 3e
       -0.6415832 0.19341153 -0.23971355 0.20967938
0001e0 f0 8f be 3d 19 c1 77 3e 18 a6 1c be 21 72 16 bf
       0.09304798 0.24194755 -0.15297735 -0.58767897
0001f0 f7 b7 49 be c3 fc c8 3d 22 03 0a bf de 78 9d 3d
       -0.19699083 0.098138355 -0.5391103 0.07689069
